checkpoints/model.pkl (torch_old, 818097 bytes, 70 tensors)

obs_encoder_module.0.bias f4 [4]
0	0xbe449d38	-0.19200599
1	0x3d9562c2	0.07294227
2	0x3db60421	0.08887506
3	0xbdc9cd86	-0.098536536

obs_encoder_module.3.weight f4 [4, 4, 5, 5]
0	0xbc1ce966	-0.009577131
1	0xbd099684	-0.03359081
2	0x3c8bf78e	0.017085817
3	0xbd82017d	-0.0634794
4	0x3d53b110	0.05168253
5	0xbca6f0be	-0.020378467
6	0xbd9c2070	-0.076233745
7	0xbc6879e1	-0.014189214
8	0x3db98c4a	0.09059961
9	0xbc2a5c2f	-0.010397955
10	0xbdac5733	-0.084150694
11	0xbdab9085	-0.08377174
12	0xbdf4a37d	-0.119452454
13	0xbb104b80	-0.0022017658
14	0x3d56e881	0.052467827
15	0xbbc97007	-0.006147388
16	0xbc1db3b2	-0.009625362
17	0x3d3d059d	0.04614793
18	0x3c91ed0b	0.017813226
19	0xbc89a80f	-0.01680377
20	0x3b4590ef	0.0030146202
21	0x3d876c3f	0.06612443
22	0xbdec27a7	-0.115310006
23	0xbda6fc73	-0.081536196
24	0x3d98812f	0.07446515
25	0xbd38d8b3	-0.045128535
26	0x3d648db1	0.05579919
27	0x3a1d3602	0.00059971225
28	0xbda8dd7c	-0.0824537
29	0x3c6a1be7	0.014288879
30	0xbd840574	-0.064463526
31	0xbd16c7f7	-0.036811795
32	0x3c753fbc	0.014968809
33	0x3d71b1a1	0.05900729
34	0xbd60ee43	-0.054914724
35	0xbcbce955	-0.02306048
36	0xbd4a00d8	-0.04931721
37	0x3c72e7ff	0.01482582
38	0x3c942975	0.018086175
39	0x3d02f613	0.031972956
40	0x3d812640	0.06306124
41	0xbc5de7eb	-0.013544063
42	0xbdae86ba	-0.08521791
43	0xbd9a017c	-0.07519814
44	0xbd857d9a	-0.06518097
45	0x3db98c44	0.09059957
46	0x3ca21713	0.019786393
47	0x3d4e9cce	0.05044251
48	0x3beda874	0.007252747
49	0x3dbf64d2	0.09345402
50	0x3d3afbe9	0.045650396
51	0x3d957f8d	0.07299719
52	0x3cc743c1	0.0243243
53	0x3be53eae	0.0069959974
54	0x3db4d2df	0.08829283
55	0x3d3f116f	0.046647485
56	0x3caea9f7	0.02132128
57	0xba865a44	-0.001025029
58	0x3dae034c	0.084967226
59	0x3dc6e690	0.09711945
60	0x3bf6aa54	0.007527629
61	0xbd9b08b5	-0.0757002
62	0xbd73d2d4	-0.059527233
63	0x3d46d28f	0.048540648
64	0x3d26e21b	0.040742975
65	0xbca4d873	-0.020122742
66	0xbb169fca	-0.0022983425
67	0x3d0d1ec9	0.034453187
68	0xbda45652	-0.08024277
69	0x3d9d4382	0.07678892
70	0x3dc9b0d1	0.09848178
71	0xbdac41f1	-0.08411015
72	0xbd78dd16	-0.06075772
73	0xbda41503	-0.0801182
74	0x3cf53c78	0.02993606
75	0x3dc8fdd1	0.09814037
76	0xbc00d531	-0.007863329
77	0x3b9b318f	0.0047361325
78	0xbd3cc70a	-0.046088256
79	0x3aa10a32	0.0012286364
80	0xbd8b0fc6	-0.06790118
81	0xbd8ab39a	-0.067725375
82	0x3ca11ba4	0.0196665
83	0x3d6edf25	0.058318276
84	0xbd9ef0a5	-0.07760743
85	0x3cf0ca13	0.029393231
86	0x3c203209	0.009777554
87	0x3d85497b	0.06508156
88	0x3dc00333	0.0937561
89	0x3c8b637f	0.017015217
90	0xbd88763d	-0.06663177
91	0x3d8a4ee0	0.067533255
92	0x3da70e9d	0.08157084
93	0xbd1860f0	-0.03720182
94	0x3c56fc5c	0.013121691
95	0xbce69b1e	-0.028150138
96	0x3b0a56ad	0.0021108792
97	0x3c5e0822	0.013551744
98	0x3d60cf1b	0.05488501
99	0x3c0b717b	0.008510943
100	0xbd092bac	-0.033488914
101	0xbd39c7c8	-0.045356542
102	0xbd9db888	-0.07701212
103	0xbbb6701a	-0.0055675628
104	0xbd981a3f	-0.07426881
105	0x3d54b58a	0.05193094
106	0x3c6e31a3	0.0145382015
107	0xbd2c8d5c	-0.042127
108	0xbd42bc38	-0.04754278
109	0x3d36cdd6	0.044629894
110	0xbd98ce14	-0.07461181
111	0x3ce729ba	0.028218139
112	0xbb98d95d	-0.0046645836
113	0xbd2aea8a	-0.04172758
114	0x3c317746	0.01083166
115	0xbd8fd9a1	-0.07023931
116	0xbdc50965	-0.096209325
117	0x3da8e6ee	0.08247171
118	0xbdcd0f25	-0.10012654
119	0xbb6e6dcd	-0.0036381364
120	0x3d7caa54	0.061685875
121	0xbd54729c	-0.051867113
122	0xbd8a8029	-0.06762726
123	0xbdb31d54	-0.08745828
124	0x3ac3ea0a	0.0014947068
125	0x3ba32f01	0.0049799685
126	0x3bcd4519	0.0062643406
127	0x3d825b33	0.06365051
128	0xbd9a6302	-0.075384155
129	0xbd056962	-0.032571204
130	0xbce7e9f4	-0.0283098
131	0x3dc7ea30	0.097614646
132	0x3b535e7c	0.0032252362
133	0xbd7d8a26	-0.061899327
134	0xbd8da83a	-0.06916852
135	0x3dc28ad7	0.09499138
136	0xbd4d9218	-0.050188154
137	0x3de5ca00	0.11220169
138	0xbc9cc7f0	-0.019138306
139	0xbc285a77	-0.010275475
140	0x3d476493	0.0486799
141	0xbabf1e01	-0.0014581085
142	0xba114384	-0.00055413716
143	0x3d93d4b0	0.07218301
144	0xbdc7865e	-0.097424254
145	0x3a20c148	0.0006132317
146	0x3d46c8cb	0.048531335
147	0xbc9d10f7	-0.019173129
148	0xbd90d9fc	-0.07072827
149	0x3dd1547f	0.102211945
150	0xbdba64cb	-0.09101256
151	0xbd939c3d	-0.072075345
152	0x3d952ebe	0.07284306
153	0xbda03a69	-0.07823641
154	0xbd52cdbe	-0.051465742
155	0xbd5e9014	-0.054336622
156	0x3d91b9be	0.07115506
157	0x3d900490	0.0703212
158	0x3da792db	0.08182307
159	0xbd7428f7	-0.05960938
160	0xbcb8fb43	-0.022580748
161	0x3d006bef	0.031352933
162	0x3d0d0cba	0.034435965
163	0xbd5521ae	-0.052034073
164	0x3da2c6b6	0.07948057
165	0x3cb17903	0.021664148
166	0x3ddf2cae	0.10897194
167	0xbd9cbbd4	-0.07653013
168	0xbdc2cb7c	-0.09511468
169	0x3dddfe33	0.108395
170	0xbc35e164	-0.011101101
171	0xbd8fb967	-0.070177846
172	0xbda6c7e1	-0.081435926
173	0x3dabae72	0.08382882
174	0xbd81e660	-0.06342769
175	0xbd8cfeae	-0.06884514
176	0x3dabb53c	0.08384177
177	0xbdbc74a1	-0.09201933
178	0xbd0c6cb6	-0.034283362
179	0xbc57e832	-0.013177918
180	0x3bd796a2	0.006579236
181	0x3cd52d46	0.026022565
182	0xbd036df0	-0.032087266
183	0x3dbb696b	0.09150966
184	0xbdd8e7aa	-0.105910614
185	0x3cb715a5	0.022349188
186	0xbd0dd93c	-0.034631
187	0x3d3fff3e	0.046874277
188	0x3dbdd149	0.092684336
189	0xbc9eda6c	-0.019391261
190	0x3d00a20f	0.03140455
191	0x3dd4d35c	0.10391876
192	0x3e2ec103	0.17065816
193	0x3c1fd14b	0.009754489
194	0xbcada90c	-0.021198772
195	0xba8906fc	-0.0010454352
196	0x3d3d5b6a	0.046229757
197	0x3d4c7cb3	0.04992361
198	0xbc97e36a	-0.018541057
199	0xbd032ea6	-0.03202691
200	0xbba06809	-0.0048952145
201	0x3db44d51	0.088038094
202	0xbdb5893a	-0.088640645
203	0xbde02e64	-0.10946348
204	0x3da112e9	0.07864935
205	0x3de460cc	0.11151275
206	0xbde19203	-0.11014178
207	0x3ce907c9	0.028446095
208	0xbd034bcf	-0.03205472
209	0xbd9b6c23	-0.07588985
210	0xbdf38f2a	-0.11892541
211	0x3d51e75a	0.051246025
212	0x3ce86aa1	0.028371157
213	0xbdbe7301	-0.09299279
214	0x3b4f2dad	0.0031612918
215	0xbd129d1c	-0.035794362
216	0xbd0bf22f	-0.03416651
217	0x3d0cd913	0.034386706
218	0x3cce94fd	0.025217528
219	0xbd81c733	-0.06336822
220	0xbcbf4bf6	-0.02335165
221	0x3da74299	0.08166999
222	0x3d24103c	0.040054545
223	0xbdee1878	-0.11625761
224	0xbdc15aba	-0.09441133
225	0x3d167dc2	0.036741026
226	0x3d0ff262	0.035143264
227	0x3c8f7b47	0.017514838
228	0x3d604f05	0.05476286
229	0xbd8bb675	-0.0682191
230	0x3db130f0	0.08651912
231	0x3dbabf3e	0.09118508
232	0x3d6d77aa	0.05797545
233	0x3d53f4d6	0.051747166
234	0x3c19f65f	0.009397118
235	0x3d7bf732	0.06151504
236	0x3c610da9	0.013736167
237	0xbbde6286	-0.0067866473
238	0xbd8c2d60	-0.06844592
239	0x3c7cd05e	0.015430538
240	0x3d015f98	0.031585306
241	0x3cefed0c	0.029287837
242	0x3dc9f971	0.0986203
243	0xbd46de8e	-0.04855209
244	0xbd26d09a	-0.04072628
245	0xbbf9180b	-0.007601743
246	0xbc6ff7e3	-0.014646503
247	0x3cbc4e19	0.022986459
248	0xbcb68481	-0.02227998
249	0xbced1cdc	-0.028944425
250	0x3da54acb	0.08070906
251	0xbd1f9ddf	-0.038968917
252	0x3abec9aa	0.001455595
253	0x3a239a62	0.00062409614
254	0xbdb25b56	-0.08708827
255	0xbbd22a6d	-0.006413749

obs_encoder_module.3.bias f4 [4]
0	0x3d2a8995	0.041635115
1	0xbb392909	-0.0028253219
2	0xbd81b699	-0.06333656
3	0xbd349c30	-0.044094265

obs_encoder_module.6.weight f4 [8, 4, 5, 5]
0	0x3d537bc2	0.051631697
1	0xbdcf35cc	-0.10117683
2	0xbd9f7f79	-0.07787985
3	0xbab8ac58	-0.0014089448
4	0xbdc4ec86	-0.09615426
5	0xbd90ad18	-0.07064265
6	0x3c62cc9b	0.013842727
7	0xbd313ccb	-0.043270867
8	0xbd929d00	-0.071588516
9	0x3d4c18ea	0.049828447
10	0x3d21abd9	0.039470527
11	0x3d390d12	0.04517848
12	0x3d02926c	0.03187792
13	0x3d330cd9	0.043713424
14	0xbdc4ad34	-0.096033484
15	0xbd9336bb	-0.071881734
16	0xbca7738c	-0.02044084
17	0xbdd14d0a	-0.10219772
18	0x3d068abc	0.03284715
19	0xbd5280a0	-0.051392198
20	0x3cdc6322	0.026902739
21	0x3c64fa77	0.013975731
22	0x3aa6cf12	0.0012726507
23	0xbdae45b9	-0.08509392
24	0x3a7819e8	0.00094643096
25	0xbdf104e3	-0.1176851
26	0xbd8928a1	-0.066972025
27	0xbdb6b100	-0.08920479
28	0x3d30486d	0.04303782
29	0x3d078347	0.03308418
30	0x3d55a074	0.052154973
31	0x3d82957e	0.063761696
32	0xbcbf66f7	-0.023364527
33	0xbdb017d3	-0.08598294
34	0x3ae3c958	0.0017378731
35	0xbde28789	-0.110610075
36	0xbd7a7bb3	-0.061153125
37	0xbdd9f80e	-0.10643016
38	0xbd8d4a22	-0.06898905
39	0x3dc38ebf	0.09548711
40	0xbd80db59	-0.06291837
41	0x3d8a7662	0.06760861
42	0xbd175c03	-0.036952984
43	0xbd43320e	-0.047655158
44	0x3c8e45b3	0.01736722
45	0xbdc78b28	-0.09743339
46	0x3d80e721	0.06294084
47	0x3da44aad	0.08022056
48	0x3d4ca8ba	0.049965598
49	0xbd07d492	-0.033161707
50	0x3d4371c2	0.04771591
51	0xbc310e59	-0.010806643
52	0xbe0c86ae	-0.13723251
53	0xbda1b597	-0.07895964
54	0x3d83bf03	0.06432917
55	0x3d888844	0.066666156
56	0xbd88646d	-0.0665978
57	0xbdc390af	-0.095490806
58	0x3d4ef820	0.0505296
59	0xbd1616ba	-0.036642767
60	0xbceffc46	-0.029295098
61	0xbdc747ff	-0.09730529
62	0xbd72bcc0	-0.059262037
63	0xbdaff09c	-0.085908145
64	0xbccd9d84	-0.025099523
65	0xbdd43029	-0.10360748
66	0x3cd83134	0.02639065
67	0xbd470ce5	-0.04859628
68	0xbdceadbb	-0.1009173
69	0x3cf8782c	0.03033074
70	0xbd7826a8	-0.06058374
71	0xbde12de4	-0.10995081
72	0xbd8abadd	-0.067739226
73	0xbddb1890	-0.10698044
74	0xb9e03e03	-0.00042770812
75	0x3d898597	0.06714933
76	0xbda7c8e2	-0.08192612
77	0xbd91cf1f	-0.07119583
78	0xbdaea9d2	-0.085284844
79	0xbdc599b0	-0.09648454
80	0x3c070f2b	0.008243362
81	0xbcde7b2a	-0.027158339
82	0xbd337c8e	-0.043819956
83	0x3d99bfc1	0.07507277
84	0x3da67fb2	0.08129825
85	0xbd42067f	-0.047369476
86	0x3c86e47a	0.016466368
87	0x3d990b9d	0.07472918
88	0xbd821ce5	-0.063531674
89	0xbd1cdafa	-0.03829477
90	0xbd4d46f9	-0.050116513
91	0x3d856d93	0.0651504
92	0x3d48beea	0.049010195
93	0xbca248d5	-0.01981012
94	0xbdc7a1fb	-0.09747692
95	0xbdfae1e7	-0.12250119
96	0x3be61e4a	0.0070226537
97	0xbd157157	-0.036485042
98	0xbde184c5	-0.11011652
99	0xbc6bb08e	-0.014385356
100	0x3cc271fc	0.023735993
101	0x3dca0d7f	0.098658554
102	0xbdb8d3af	-0.090247504
103	0xbbca9b04	-0.00618303
104	0x3dabb0a5	0.08383302
105	0x3da4268f	0.08015167
106	0x3d441a84	0.04787685
107	0xbc89ee49	-0.016837256
108	0xbd8f1ea3	-0.06988265
109	0x3d508a3a	0.050913073
110	0x3cfa1936	0.0305296
111	0x3d3f57da	0.04671464
112	0x3db26773	0.087111376
113	0x3c9ccb45	0.019139895
114	0x3da23868	0.07920915
115	0xbd0ae1cd	-0.033906747
116	0x3dc0cc71	0.09413994
117	0x3d870ae2	0.065938726
118	0xbcb55c03	-0.022138601
119	0xbd50b350	-0.050952256
120	0xbd4a6af9	-0.049418423
121	0x3d569543	0.05238844
122	0x3d051d59	0.03249869
123	0x3d795f92	0.06088216
124	0xbda9334d	-0.08261738
125	0x3dda11f0	0.106479526
126	0xbc933d26	-0.017973494
127	0x3c18a857	0.009317479
128	0x3dd1e18c	0.10248098
129	0x3db29f43	0.08721783
130	0x3dab29ef	0.083576076
131	0x3d119409	0.035541568
132	0xbd3e19b6	-0.04641124
133	0x3d84e854	0.064896256
134	0xbd9d875d	-0.07691834
135	0x3b1198f6	0.0022216416
136	0xbc9001e2	-0.017579023
137	0x3d8ace4d	0.0677763
138	0x3cea274f	0.028583197
139	0xbc04d51b	-0.008107449
140	0x3dc8a39a	0.097968295
141	0x3d22019b	0.039552312
142	0x3d376f55	0.04478391
143	0x3cdb9e74	0.026808955
144	0x3a9fd333	0.001219368
145	0x3cf13ac4	0.029446967
146	0x3debd69b	0.11515542
147	0x3daa47e8	0.08314496
148	0x3dbef43f	0.0932393
149	0x3d10b887	0.03533223
150	0xbccf9c6a	-0.025343139
151	0xbce3069e	-0.027713116
152	0x3d88f49c	0.066872805
153	0x3cb4f556	0.022089642
154	0xbaa540c1	-0.0012607799
155	0xbd181656	-0.037130676
156	0x3cd2180b	0.02564623
157	0x3c3111f4	0.010807503
158	0xbcf9efea	-0.030509908
159	0xbd57c765	-0.05268039
160	0x3dd5fa54	0.10448137
161	0x3d53f52f	0.051747497
162	0x3d6c1922	0.057641156
163	0x3dec37f2	0.11534108
164	0x3e02d850	0.12777829
165	0x3e0b4aec	0.13602799
166	0x3da88aae	0.08229576
167	0x3af8584d	0.0018947214
168	0x3d814550	0.063120484
169	0xbd47fd63	-0.048825633
170	0x3d9fb0a5	0.07797364
171	0x3d4d40bb	0.05011056
172	0xbcfa67ea	-0.030567128
173	0x3d7b6c0e	0.061382346
174	0xbd39e17a	-0.045381047
175	0xbd905fb2	-0.070495024
176	0xbd343716	-0.043997847
177	0xbd71e4ef	-0.05905622
178	0xbd87c4d2	-0.06629337
179	0x3d160b59	0.036631916
180	0xbd8d1698	-0.06889075
181	0x3c2aa071	0.010414229
182	0xbdaa0a98	-0.08302802
183	0x3d84b8c0	0.06480551
184	0x3c6ca986	0.014444714
185	0x3d9f7ee0	0.07787871
186	0x3dcf983f	0.101364605
187	0xbc8567a8	-0.016284779
188	0xbcd20af1	-0.025639983
189	0xbdb448d6	-0.08802955
190	0xbd8ef268	-0.06979829
191	0xbc92ec55	-0.017934958
192	0x3d7675e3	0.06017102
193	0x3d87a2e6	0.06622867
194	0xbc38977b	-0.0112665845
195	0x3dd1c873	0.10243311
196	0x3d952b8c	0.072836965
197	0xbdb1af15	-0.08675972
198	0x3d5ff653	0.054678272
199	0x3d9f5011	0.07778943
200	0x3dbe9167	0.09305077
201	0x3d4fb3b8	0.050708503
202	0x3dcec0b2	0.100953475
203	0x3d812891	0.063065656
204	0x3c7a18a5	0.015264665
205	0x3c69d37e	0.014271615
206	0xbd98c579	-0.0745954
207	0xbd30afcb	-0.0431364
208	0x3d84543b	0.06461378
209	0x3ccbeb43	0.024892455
210	0x3d9288a2	0.07154967
211	0xbd9cbf98	-0.07653731
212	0x3dca7aa2	0.098866716
213	0x3d9409b4	0.07228413
214	0xbdb7aa35	-0.08968011
215	0x3d28ba50	0.041193306
216	0xbccc3f12	-0.024932418
217	0xbc974301	-0.018464567
218	0x3c335783	0.010946157
219	0xbcf4f0af	-0.029899923
220	0xbd9e8c94	-0.07741657
221	0x3dc33cf3	0.095331095
222	0xbca2290d	-0.019794965
223	0x3cca1f2c	0.024673067
224	0x3d4302d6	0.047610126
225	0xbd09383b	-0.03350089
226	0x3d81f45e	0.063454375
227	0x3dbbd1fb	0.0917091
228	0x3b9cfead	0.004791102
229	0xbdae45ab	-0.08509382
230	0xba91a958	-0.001111309
231	0x3d008ac0	0.031382322
232	0xbd48714a	-0.048936166
233	0xbd8dc312	-0.06921972
234	0xba1211c4	-0.00055721053
235	0x3d2eed7e	0.04270696
236	0xbd37ed6b	-0.044904154
237	0x3d604e2b	0.054762047
238	0xb9e3a9f5	-0.00043423442
239	0xbde6c6a5	-0.11268357
240	0xbd99ff2b	-0.075193726
241	0xbdc825a1	-0.09772802
242	0x3ca8482a	0.020542223
243	0xbc8b6b77	-0.017019017
244	0xbd45ea6e	-0.048319273
245	0x3dc1490e	0.09437762
246	0xbd171732	-0.036887355
247	0xbd9b5fff	-0.07586669
248	0xbdb8393e	-0.08995293
249	0xbe1027c7	-0.14077674
250	0x3deff7f7	0.117172174
251	0x3d6ba2df	0.057528373
252	0xbd2cc4c1	-0.042179827
253	0xbd982f2a	-0.07430871
254	0xbd6aeac4	-0.057352796
255	0x3ddd14fa	0.107950166

obs_encoder_module.6.bias f4 [8]
0	0x3d94fa8b	0.0727435
1	0xbc85b74f	-0.01632276
2	0xbc451648	-0.012029238
3	0x3da5216c	0.08063015
4	0x3c457c2c	0.012053531
5	0x3da858a3	0.08220031
6	0x3c94062b	0.018069347
7	0x3c8a04a2	0.016847912

obs_encoder_module.7.weight f4 [8, 39, 39]
0	0x3f8e6bb5	1.112662
1	0x3f875509	1.0572826
2	0x3f7ec4d0	0.9951906
3	0x3f808d1b	1.0043062
4	0x3f77f4f5	0.9685815
5	0x3f6d3619	0.9266067
6	0x3f759e27	0.95944446
7	0x3f7741bf	0.96584696
8	0x3f82366a	1.0172856
9	0x3f84c1ee	1.0371683
10	0x3f874153	1.056681
11	0x3f860e7c	1.047317
12	0x3f87ed8c	1.0619369
13	0x3f89d1ce	1.0767152
14	0x3f8d7b4c	1.1053252
15	0x3f8dde2c	1.1083426
16	0x3f89c372	1.076277
17	0x3f8966d7	1.0734509
18	0x3f8a1202	1.0786746
19	0x3f87d409	1.0611583
20	0x3f88e717	1.0695523
21	0x3f886a1d	1.0657383
22	0x3f868a06	1.0510871
23	0x3f86e0c5	1.0537344
24	0x3f8aa5bc	1.0831828
25	0x3f8b72be	1.0894392
26	0x3f901ceb	1.1258825
27	0x3f9392a6	1.1529129
28	0x3f91e603	1.1398319
29	0x3f91e635	1.1398379
30	0x3f8f6387	1.1202248
31	0x3f8b2b15	1.0872523
32	0x3f8adc0d	1.0848404
33	0x3f8a23f4	1.0792222
34	0x3f8ad928	1.0847521
35	0x3f8e4c44	1.1117024
36	0x3f9991ba	1.1997597
37	0x3f9d77f6	1.2302234
38	0x3fa00260	1.2500725
39	0x3f87482b	1.0568899
40	0x3f7f3ded	0.99703866
41	0x3f734b08	0.95036364
42	0x3f698f79	0.91234547
43	0x3f663948	0.89931154
44	0x3f67f99b	0.9061524
45	0x3f6e7a3b	0.9315526
46	0x3f731b43	0.94963473
47	0x3f7c1b60	0.9847927
48	0x3f7fa2e2	0.99857914
49	0x3f849b86	1.0359962
50	0x3f8394cf	1.0279788
51	0x3f850187	1.0391091
52	0x3f866bb6	1.0501621
53	0x3f86b72a	1.0524647
54	0x3f865704	1.0495305
55	0x3f841098	1.0317564
56	0x3f827b32	1.0193846
57	0x3f865807	1.0495614
58	0x3f83c4ba	1.0294411
59	0x3f83cfac	1.0297751
60	0x3f859264	1.04353
61	0x3f825bd4	1.0184274
62	0x3f843ded	1.0331398
63	0x3f863838	1.0485907
64	0x3f87d56a	1.0612004
65	0x3f8b43d6	1.0880077
66	0x3f8bfbd3	1.0936226
67	0x3f8ce669	1.1007816
68	0x3f8cc31f	1.0997046
69	0x3f895f4f	1.0732211
70	0x3f851e33	1.0399841
71	0x3f8287dc	1.0197711
72	0x3f809664	1.0045896
73	0x3f7d05c7	0.9883694
74	0x3f835f71	1.0263501
75	0x3f8a5666	1.0807617
76	0x3f93235b	1.1495165
77	0x3f9810da	1.1880143
78	0x3f8b6c48	1.089242
79	0x3f872ce5	1.0560576
80	0x3f86f128	1.0542345
81	0x3f839f3b	1.0282968
82	0x3f835c0a	1.0262463
83	0x3f837a50	1.0271702
84	0x3f846ce5	1.0345732
85	0x3f7a132d	0.9768551
86	0x3f7a2951	0.97719294
87	0x3f757a48	0.9588971
88	0x3f82f75f	1.0231742
89	0x3f8345bf	1.025566
90	0x3f82b93d	1.021278
91	0x3f87342b	1.0562795
92	0x3f88c0d0	1.0683842
93	0x3f880055	1.0625101
94	0x3f84b4fe	1.0367734
95	0x3f85fb51	1.0467321
96	0x3f8a9dd2	1.0829413
97	0x3f87faff	1.0623473
98	0x3f810d8b	1.0082258
99	0x3f811036	1.0083072
100	0x3f78e49f	0.9722385
101	0x3f6f53e3	0.93487376
102	0x3f78f9a4	0.9725592
103	0x3f7836b8	0.96958494
104	0x3f6dd3c7	0.9290127
105	0x3f6922fc	0.91069007
106	0x3f731d4c	0.9496658
107	0x3f7fcc81	0.99921423
108	0x3f83380d	1.025148
109	0x3f7efca3	0.99604243
110	0x3f80e5fe	1.0070188
111	0x3f809547	1.0045556
112	0x3f8297b3	1.0202545
113	0x3f8ab579	1.0836631
114	0x3f8d2bd4	1.1029
115	0x3f938ec9	1.152795
116	0x3f96f8ae	1.1794641
117	0x3f8abcdf	1.0838889
118	0x3f85331d	1.0406224
119	0x3f82cc31	1.0218564
120	0x3f830b55	1.0237833
121	0x3f848f0e	1.0356157
122	0x3f83b842	1.0290606
123	0x3f8475a8	1.0348406
124	0x3f7bcb5e	0.9835719
125	0x3f74b8e5	0.95594627
126	0x3f7f9467	0.9983582
127	0x3f80033c	1.0000987
128	0x3f80e799	1.0070678
129	0x3f81b38e	1.0132921
130	0x3f81c25f	1.0137442
131	0x3f7b4d66	0.98164976
132	0x3f7bad14	0.9831097
133	0x3f7a6854	0.9781544
134	0x3f76382b	0.96179456
135	0x3f8036b1	1.001669
136	0x3f7dc7ba	0.99132884
137	0x3f7887ec	0.970824
138	0x3f6ee6bf	0.9332084
139	0x3f6dea5d	0.92935735
140	0x3f6d3581	0.92659765
141	0x3f71d873	0.944709
142	0x3f732e53	0.9499256
143	0x3f6f1782	0.93395245
144	0x3f685590	0.9075556
145	0x3f6e94eb	0.9319598
146	0x3f79a481	0.9751664
147	0x3f807d9c	1.0038333
148	0x3f8042f9	1.0020438
149	0x3f81fb51	1.0154821
150	0x3f7c0c88	0.9845662
151	0x3f830759	1.0236617
152	0x3f87d030	1.0610409
153	0x3f86b47d	1.0523831
154	0x3f937faa	1.1523335
155	0x3f94ce98	1.1625547
156	0x3f8935ee	1.0719583
157	0x3f7fb36a	0.9988314
158	0x3f7aeaf4	0.9801476
159	0x3f81b0f4	1.0132127
160	0x3f86dfd9	1.0537063
161	0x3f865a70	1.0496349
162	0x3f8498e6	1.0359161
163	0x3f816632	1.0109313
164	0x3f80dceb	1.0067419
165	0x3f822e8b	1.0170454
166	0x3f84c518	1.0372648
167	0x3f823e2c	1.0175223
168	0x3f811184	1.008347
169	0x3f80b404	1.0054936
170	0x3f789d57	0.9711508
171	0x3f7c566d	0.98569375
172	0x3f7954a6	0.9739479
173	0x3f78f41f	0.972475
174	0x3f76ffac	0.96483874
175	0x3f7dd881	0.99158484
176	0x3f7e632d	0.9937008
177	0x3f7148ff	0.9425201
178	0x3f72eb1a	0.94889987
179	0x3f7850f0	0.969985
180	0x3f75aaa6	0.95963514
181	0x3f723eb0	0.94626904
182	0x3f6942fa	0.91117823
183	0x3f6bc4d1	0.92097193
184	0x3f73f32c	0.95292926
185	0x3f8279bb	1.0193399
186	0x3f865195	1.0493647
187	0x3f868348	1.0508814
188	0x3f832927	1.0246934
189	0x3f81f5be	1.015312
190	0x3f86725f	1.0503653
191	0x3f89c5a2	1.0763438
192	0x3f8b1791	1.0866567
193	0x3f916110	1.1357746
194	0x3f95b8db	1.1697038
195	0x3f870f7e	1.0551603
196	0x3f714c2a	0.9425684
197	0x3f6eea6c	0.9332645
198	0x3f7f61c3	0.9975855
199	0x3f8331eb	1.0249609
200	0x3f81eac1	1.0149766
201	0x3f8219db	1.016414
202	0x3f7e1919	0.99257046
203	0x3f71d563	0.9446623
204	0x3f84c675	1.0373064
205	0x3f8664c4	1.0499501
206	0x3f861246	1.0474327
207	0x3f813e37	1.0097111
208	0x3f758191	0.9590083
209	0x3f774e87	0.966042
210	0x3f7ad123	0.9797537
211	0x3f7890ae	0.97095764
212	0x3f75ec94	0.96064115
213	0x3f73741a	0.9509903
214	0x3f6cc5e1	0.9248944
215	0x3f792811	0.9732676
216	0x3f6f2cfa	0.93428004
217	0x3f75f3ad	0.96074945
218	0x3f800009	1.0000011
219	0x3f790875	0.9727853
220	0x3f784a42	0.9698831
221	0x3f7709ba	0.96499217
222	0x3f75390e	0.95790184
223	0x3f8277ed	1.0192848
224	0x3f884faf	1.0649318
225	0x3f884259	1.0645248
226	0x3f86c38f	1.052843
227	0x3f832015	1.0244166
228	0x3f81f2c6	1.0152214
229	0x3f81292c	1.009069
230	0x3f803f12	1.0019248
231	0x3f86aa29	1.0520679
232	0x3f90ec68	1.1322145
233	0x3f963d64	1.1737485
234	0x3f861a3e	1.0476758
235	0x3f633404	0.88751245
236	0x3f68f6d9	0.9100166
237	0x3f74384e	0.95398414
238	0x3f79453f	0.97371286
239	0x3f7b8f62	0.9826566
240	0x3f759f03	0.9594576
241	0x3f75d773	0.96031874
242	0x3f6c6fef	0.923583
243	0x3f7eb3c5	0.99493057
244	0x3f82622c	1.018621
245	0x3f831a53	1.0242409
246	0x3f818e15	1.0121485
247	0x3f778154	0.96681714
248	0x3f73ffa7	0.9531197
249	0x3f7fe60b	0.9996039
250	0x3f6f2f8b	0.9343192
251	0x3f72364a	0.9461409
252	0x3f6d5b0c	0.9271705
253	0x3f6533ba	0.89532053
254	0x3f72101f	0.9455585
255	0x3f7c389a	0.9852387

obs_encoder_module.7.bias f4 [8, 39, 39]
0	0x3db7800f	0.08959972
1	0x3cdc3742	0.026881818
2	0xbd454e0c	-0.048170134
3	0xbdb43af6	-0.088003084
4	0xbdd2b2ce	-0.102880105
5	0xbdb67fca	-0.089110926
6	0xbd9747c0	-0.07386732
7	0xbd1c002b	-0.038086098
8	0xbbd7225c	-0.0065653753
9	0x3cb21648	0.02173914
10	0x3cf4eba1	0.029897513
11	0x3d3a990b	0.04555611
12	0x3d48755a	0.04894004
13	0x3d81af39	0.06332249
14	0x3d977660	0.07395625
15	0x3d93f16f	0.07223784
16	0x3d4f3e4f	0.05059653
17	0x3ce95192	0.028481279
18	0x3baa3414	0.0051941965
19	0xbb148c15	-0.0022666503
20	0xbb613dfe	-0.0034369226
21	0x3c962dfc	0.018332474
22	0x3d1dbfa4	0.03851284
23	0x3d5ca207	0.05386546
24	0x3d902952	0.07039131
25	0x3db229f4	0.08699408
26	0x3df817eb	0.12113937
27	0x3e0cb393	0.13740377
28	0x3e128700	0.14309311
29	0x3e08130e	0.13288519
30	0x3de7aebe	0.11312626
31	0x3db45981	0.08806134
32	0x3d8b79f5	0.06810371
33	0x3d2d7749	0.042350087
34	0x3d0794f2	0.03310103
35	0x3d74a693	0.05972917
36	0x3dea340a	0.11435707
37	0x3e2e3e4d	0.17015953
38	0x3e779c1e	0.24180648
39	0x3d9184d2	0.071054116
40	0x3c897b41	0.016782405
41	0xbd0e22a5	-0.03470101
42	0xbd96ab6d	-0.073569156
43	0xbdbb82cc	-0.09155807
44	0xbdab9780	-0.08378506
45	0xbd95a13d	-0.073061444
46	0xbd346347	-0.04403999
47	0xbca70890	-0.020389825
48	0x3bbd4446	0.005775961
49	0x3ca19977	0.019726498
50	0x3d0101e8	0.03149596
51	0x3d1e4f84	0.03865005
52	0x3d2d4bb4	0.042308524
53	0x3d17c3d5	0.037051994
54	0x3cc85b58	0.024457619
55	0x3bec2a83	0.007207216
56	0xbc73c825	-0.014879261
57	0xbce2f069	-0.027702527
58	0xbce2a2fd	-0.02766561
59	0xbca1e1d1	-0.019760998
60	0xb978f7fe	-0.00023743507
61	0x3ca7241d	0.020402962
62	0x3d09667a	0.033544995
63	0x3d488a00	0.048959732
64	0x3d7e92ae	0.062151603
65	0x3dad6d5a	0.08468123
66	0x3dd9c4f0	0.10633266
67	0x3deb58df	0.1149156
68	0x3dd57629	0.10422928
69	0x3db288be	0.08717488
70	0x3d79a7bd	0.060950983
71	0x3d29be6d	0.04144137
72	0x3c05b3b3	0.008160519
73	0x3bad7642	0.0052936384
74	0x3c9b0180	0.018921614
75	0x3daaf2fb	0.08347126
76	0x3e003ae4	0.12522465
77	0x3e3df792	0.18551472
78	0x3dbfcde2	0.09365441
79	0x3d15ba16	0.03655442
80	0xbc77923f	-0.015110551
81	0xbd6ae29d	-0.05734502
82	0xbdbb1287	-0.09134393
83	0xbda3b97f	-0.07994365
84	0xbd97ac03	-0.074058555
85	0xbd26a752	-0.040686913
86	0xbcbd24aa	-0.023088772
87	0xbadb642d	-0.0016738229
88	0x3c336739	0.010949903
89	0x3ca868fc	0.020557873
90	0x3cf32f5f	0.029685674
91	0x3d01546f	0.031574663
92	0x3ccea97e	0.025227305
93	0x3c9cec7c	0.019155733
94	0xba89aa50	-0.0010503028
95	0xbcc54b22	-0.024083678
96	0xbd2c4050	-0.04205352
97	0xbd1b506b	-0.03791849
98	0xbcc24ed0	-0.023719221
99	0xbb49f679	-0.0030817075
100	0x3c9afd24	0.018919535
101	0x3d0a0e91	0.033705298
102	0x3d140a57	0.036142673
103	0x3d2dc570	0.04242462
104	0x3d76abd7	0.060222473
105	0x3d94e503	0.07270243
106	0x3d9f69b5	0.07783834
107	0x3d9f83b3	0.077887915
108	0x3d8a8c4e	0.06765042
109	0x3d3e42a9	0.04645029
110	0x3caa93f7	0.020822508
111	0xbc28d76e	-0.010305269
112	0xbcb65619	-0.022257851
113	0xbc7681c1	-0.015045584
114	0x3d2eb76c	0.042655393
115	0x3dc6f667	0.09714966
116	0x3e1b166d	0.15145274
117	0x3da8ac83	0.08236029
118	0x3d09fb3a	0.033686854
119	0xbc4f589f	-0.012655406
120	0xbd558dc6	-0.05213716
121	0xbd9bbae0	-0.07604003
122	0xbd977f97	-0.07397383
123	0xbd7ac0c7	-0.061219003
124	0xbd0d7b6e	-0.03454154
125	0xbc8c02cb	-0.017091176
126	0xba9ff253	-0.0012202956
127	0x3c0813c7	0.008305497
128	0x3c9c9859	0.019115614
129	0x3cd50d96	0.026007455
130	0x3cae21df	0.021256385
131	0x3c1a39fd	0.00941324
132	0xbaf1a0cf	-0.0018434766
133	0xbcb769da	-0.022389341
134	0xbd1b7127	-0.037949707
135	0xbd381784	-0.0449443
136	0xbd19889e	-0.037483804
137	0xbcbbddad	-0.022932852
138	0xbba3b0ef	-0.0049954574
139	0x3c9d3283	0.019189125
140	0x3cddc8c7	0.027073277
141	0x3cf6eff3	0.030143714
142	0x3cd20390	0.025636464
143	0x3cf5ee4c	0.030020855
144	0x3d0d7b87	0.034541633
145	0x3d26e1d6	0.040742718
146	0x3d3fcd8f	0.046826895
147	0x3d325a00	0.043542862
148	0x3cd82e8b	0.02638938
149	0x3b65fba9	0.0035092628
150	0xbcd45a74	-0.025922038
151	0xbd0317a2	-0.03200496
152	0xbce72faa	-0.02822097
153	0x3cbfaeb1	0.023398729
154	0x3d8f6f9c	0.0700371
155	0x3df912a8	0.121617615
156	0x3dab8ecb	0.08376845
157	0x3d29d893	0.041466307
158	0x3b04e072	0.0020275381
159	0xbd346601	-0.04404259
160	0xbd8d9071	-0.06912316
161	0xbd8215f6	-0.06351845
162	0xbd38f88f	-0.04515892
163	0xbc95ff55	-0.018310228
164	0xbb70ad91	-0.0036724547
165	0x3c1e08ed	0.009645683
166	0x3c8cb1b8	0.017174587
167	0x3c807c77	0.01568435
168	0x3c9513cc	0.018197916
169	0x3c3c7e28	0.011504687
170	0xb8d8610b	-0.00010317758
171	0xbc8b1f1d	-0.01698261
172	0xbd19e12d	-0.03756826
173	0xbd56e934	-0.052468494
174	0xbd6705aa	-0.056401886
175	0xbd5059f6	-0.050867043
176	0xbd148f35	-0.036269385
177	0xbc852d1a	-0.016256858
178	0xb8910343	-6.914746e-05
179	0x3c18ad08	0.009318598
180	0x3c4add9d	0.012381938
181	0x3b8ea839	0.00435355
182	0x3aad54a8	0.0013224082
183	0x39e2f58f	0.00043289035
184	0x3c0516d2	0.008123117
185	0x3caade0f	0.020857839
186	0x3cc540b2	0.0240787
187	0x3c96c470	0.018404216
188	0x3bdb65f0	0.0066955015
189	0xbcbe9ecc	-0.02326908
190	0xbcefa53d	-0.029253596
191	0xbcdbacaa	-0.026815731
192	0x3ca50043	0.020141726
193	0x3d78fb1b	0.060786348
194	0x3dec7e54	0.11547533
195	0x3d9e0c27	0.077171616
196	0x3d443c8b	0.0479093
197	0x3c3d5362	0.011555525
198	0xbcf563b0	-0.029954761
199	0xbd520e63	-0.05128325
200	0xbd195540	-0.037434816
201	0xbc44ff71	-0.012023793
202	0x3ca760c1	0.020431878
203	0x3d0d4e57	0.03449854
204	0x3d2cc508	0.04218009
205	0x3d3a86d1	0.045538727
206	0x3d0a188f	0.033714827
207	0x3cb38bb0	0.021917194
208	0x3c2a5348	0.010395832
209	0xbb850e96	-0.0040605767
210	0xbca8292f	-0.02052745
211	0xbd225106	-0.03962805
212	0xbd5f95b3	-0.054586124
213	0xbd793255	-0.060839016
214	0xbd48132e	-0.048846416
215	0xbd0a6ac3	-0.033793222
216	0xbc9aa013	-0.018875157
217	0xbb8cd91d	-0.004298343
218	0x3bbe91cb	0.0058157197
219	0x3c51dfbf	0.012809693
220	0x3be2ba95	0.006919215
221	0xbbdb9f38	-0.00670233
222	0xbc013516	-0.007886192
223	0xb9b89e00	-0.00035212934
224	0x3bdb2405	0.0066876435
225	0x3c64e72b	0.01397113
226	0x3c8e2d14	0.01735548
227	0x3c146385	0.00905693
228	0xbc5f18aa	-0.01361672
229	0xbcaa75d4	-0.020808138
230	0xbc58adb3	-0.013225007
231	0x3d1566b5	0.036474902
232	0x3d9c5b04	0.07634547
233	0x3df501d4	0.11963239
234	0x3d9ff6bb	0.07810732
235	0x3d727a50	0.059198678
236	0x3caf9111	0.021431478
237	0xbc919b3e	-0.01777422
238	0xbceda1ad	-0.029007757
239	0xbbfe6998	-0.0077640526
240	0x3cb5a59a	0.022173692
241	0x3d609c7b	0.05483673
242	0x3d981291	0.07425416
243	0x3d938292	0.07202639
244	0x3d867bad	0.06566558
245	0x3d32e114	0.043671682
246	0x3cebf561	0.02880353
247	0x3c169c54	0.009192545
248	0xbb4d34be	-0.0031311954
249	0xbca64aeb	-0.020299396
250	0xbd137861	-0.036003474
251	0xbd4ff9ee	-0.05077546
252	0xbd67cd89	-0.056592498
253	0xbd4a44e6	-0.049382113
254	0xbd164154	-0.036683396
255	0xbcd35e53	-0.025801813

encoder_ConvLSTM.mul_c f4 [1, 24, 39, 39]
0	0xbd203c66	-0.0391201
1	0xbd9e87dc	-0.07740757
2	0xbdc0ae65	-0.09408263
3	0xbd9e3fae	-0.0772699
4	0xbcbfc975	-0.023411492
5	0x3d0d26fc	0.034461007
6	0x3d2d0b56	0.04224714
7	0xbb1741b2	-0.002307993
8	0xbd136c29	-0.03599182
9	0xbd27aa2f	-0.040933784
10	0xbd930014	-0.07177749
11	0xbd99d1f3	-0.07510748
12	0xbd16a4d9	-0.036778305
13	0xbcc081e3	-0.023499435
14	0x3bafed10	0.005368836
15	0xbcf75aa8	-0.030194595
16	0xbd476968	-0.048684508
17	0xbd2f08de	-0.042733066
18	0xbd3a6582	-0.04550696
19	0xbc7b0620	-0.0153212845
20	0x3d0e9e96	0.034819208
21	0x3ccf9bd6	0.025342863
22	0x3c2d750e	0.01058699
23	0x3b34a71e	0.002756543
24	0xb876d26e	-5.884695e-05
25	0xbcf6447b	-0.03006195
26	0xbd560e93	-0.052259993
27	0xbd499731	-0.049216453
28	0xbd6de6d9	-0.05808148
29	0xbd6d1f1b	-0.057890993
30	0xbd9861df	-0.074405424
31	0xbdd9d0e3	-0.10635545
32	0xbe05a1cb	-0.1305
33	0xbdb9ae30	-0.09066427
34	0xbd5b92fc	-0.053606972
35	0xbdc0f8fb	-0.09422489
36	0xbdd7c9dc	-0.105365485
37	0xbe0d539f	-0.1380143
38	0xbe57b686	-0.21065721
39	0xbc17828b	-0.009247432
40	0xbdba2726	-0.09089498
41	0xbd89644c	-0.06708583
42	0xbda9228b	-0.08258542
43	0xbd31aadc	-0.043375835
44	0x3c4651f6	0.012104502
45	0x3cd6889b	0.026188185
46	0xbca908c2	-0.020634059
47	0xbd4c8b85	-0.049937744
48	0x3c203cf2	0.0097801555
49	0x3cadb256	0.021203201
50	0x3cdbabd6	0.026815336
51	0x3cd082db	0.025453022
52	0x3c875f17	0.016524835
53	0x3d007abf	0.03136706
54	0x3cad8c78	0.021185145
55	0x3c0c97c5	0.008581107
56	0xbc222ee4	-0.009898875
57	0xbc11e3b6	-0.008904388
58	0x3b6a3151	0.0035734961
59	0x3ba8bbcf	0.0051493417
60	0x3c58f70d	0.013242495
61	0x3cc53c24	0.024076529
62	0x3ce346bd	0.027743692
63	0x3d05023a	0.032472827
64	0x3c4cee06	0.012507921
65	0xbbc2ec26	-0.0059485612
66	0x3ba746cf	0.0051048766
67	0xbb033bb3	-0.0020024597
68	0xbbd2e212	-0.006435641
69	0xbca9be5f	-0.020720659
70	0xbd2c9885	-0.04213764
71	0xbd4b1d3e	-0.049588434
72	0xbd7916ed	-0.06081288
73	0xbc8b958a	-0.01703908
74	0xbcd5eaf9	-0.02611302
75	0xbb35cf3c	-0.002774193
76	0xbcb09656	-0.02155606
77	0xbe05d501	-0.13069536
78	0x3b00e75f	0.0019669158
79	0xbd3e4592	-0.046453066
80	0xbd1aaf3d	-0.037764776
81	0xbd1189b9	-0.035531733
82	0x3c018dd8	0.007907353
83	0x3d577f11	0.052611414
84	0x3d39b246	0.04533603
85	0x3cb2eb61	0.021840753
86	0xbca291b6	-0.019844871
87	0x3b139f8b	0.0022525515
88	0x3cbd67b9	0.023120748
89	0x3d07c6a3	0.03314842
90	0x3d0f81b1	0.035035793
91	0x3ccc1b4d	0.024915362
92	0x3c263bba	0.010146076
93	0x3d0032f9	0.03129861
94	0x3cee1e92	0.029067311
95	0x3cd7e211	0.026352914
96	0x3cc2ab6a	0.023763377
97	0x3cbd54ca	0.02311172
98	0x3c840689	0.016116397
99	0x3d059dc5	0.032621164
100	0x3cb2ec3b	0.02184116
101	0x3cb88bab	0.022527536
102	0x3c9a21fc	0.018815033
103	0x3b18427d	0.002323299
104	0xbcd3264a	-0.025775094
105	0xbcad88d7	-0.021183414
106	0xbc5e5b89	-0.013571628
107	0xbccc5c3b	-0.024946323
108	0x3c2fe56d	0.010735852
109	0x3c1b3ce9	0.009474971
110	0x3bb254c3	0.0054422333
111	0xbcf66185	-0.030075798
112	0xbd2f98bf	-0.04287028
113	0xbc90c03b	-0.017669788
114	0x3b0e6880	0.0021729767
115	0x3c09e6da	0.008416856
116	0xbd21a5b3	-0.039464664
117	0xbc204702	-0.009782555
118	0xbd1b2c3e	-0.03788399
119	0xbd029dcb	-0.031888764
120	0xba10182f	-0.00054967677
121	0x3c098fd7	0.0083961105
122	0x3d535cdd	0.051602233
123	0x3d134d36	0.035962306
124	0x3c8affc4	0.016967662
125	0x3bb69773	0.0055722534
126	0x3b8aab19	0.004231822
127	0x3c2a6ec9	0.01040239
128	0x3cc5116c	0.024056159
129	0x3cc96485	0.024584064
130	0x3c8673f2	0.016412709
131	0x3ca4394c	0.020046853
132	0x3d089bda	0.033351757
133	0x3cdb2c38	0.026754484
134	0x3cc5fafd	0.024167532
135	0x3d13f893	0.03612573
136	0x3cddc68c	0.027072214
137	0x3cc8d4eb	0.02451559
138	0x3ca2287b	0.019794693
139	0x3b5a44e0	0.0033305213
140	0x3b1aed81	0.0023640099
141	0x3c2b0238	0.010437541
142	0xbc070876	-0.008241763
143	0xbc956432	-0.018236253
144	0xbc96d013	-0.018409764
145	0xbbec0633	-0.0072028874
146	0x3b2e60cd	0.002660799
147	0x3d1e5c07	0.038661983
148	0x3ccfd398	0.02536945
149	0x3ca1b272	0.01973841
150	0xbc051e98	-0.00812497
151	0xbd19b42d	-0.037525345
152	0xbcaf8919	-0.021427678
153	0xbb34ba01	-0.0027576687
154	0xbd445bb8	-0.047939032
155	0xbd899486	-0.06717782
156	0xbd1bfccc	-0.038082883
157	0xbd15bae1	-0.036555175
158	0xbccf725c	-0.025323085
159	0x3c4b6fd7	0.012416801
160	0x3b5ecd1e	0.003399677
161	0x3a60a97f	0.0008570179
162	0x3b946ce5	0.004529583
163	0xbc44e60f	-0.012017741
164	0x3c0b33c7	0.008496231
165	0xbc6014ad	-0.0136768045
166	0x3c777172	0.015102731
167	0x3cae41b6	0.021271568
168	0x3c2bcc20	0.010485679
169	0x3ce99486	0.028513204
170	0x3d1dce17	0.03852662
171	0x3d82f246	0.06393866
172	0x3d277eab	0.040892284
173	0x3ba4be83	0.0050275936
174	0x3d06f82c	0.03295152
175	0x3d23508a	0.03987173
176	0x3c78679b	0.01516142
177	0x3c3b6ae2	0.011439057
178	0x3c29061f	0.010316401
179	0x3a81b9b7	0.0009897266
180	0x3c1bc79a	0.009508038
181	0xbbb6c612	-0.005577811
182	0xbcd32c08	-0.025777832
183	0xbcdd6c51	-0.027029188
184	0xbc84e8b2	-0.016224239
185	0x3bd41a90	0.006472893
186	0x3d144f43	0.036208402
187	0x3cd3ddde	0.02586263
188	0x3b0241bb	0.0019875604
189	0xbc0af1c7	-0.008480496
190	0xbc4c5046	-0.012470311
191	0xbc50bd1f	-0.0127404025
192	0x3c9804fc	0.018557064
193	0xbd73f1b9	-0.059556697
194	0xbdc4a76a	-0.09602244
195	0xbd1c6ad6	-0.038187824
196	0xba11a01c	-0.0005555169
197	0xbb339f59	-0.002740821
198	0x3c3ed52d	0.011647505
199	0x3c1cdd63	0.009574267
200	0x3b1d5d4a	0.0024011903
201	0xbaa43264	-0.0012527225
202	0xbc97d4ad	-0.018534029
203	0xbc9abb80	-0.018888235
204	0xbc8e93ca	-0.017404456
205	0x3b4589bd	0.0030141913
206	0x3cbdf5fd	0.023188585
207	0x3c685bed	0.014182073
208	0x3d48fde4	0.049070254
209	0x3d7b05b9	0.061284754
210	0x3d6447be	0.05573248
211	0x3d19a60f	0.03751188
212	0xbc5c80f9	-0.013458484
213	0x3c1078fa	0.008817906
214	0x3d35ccf6	0.04438492
215	0x3ce50742	0.027957562
216	0x3ced5d8f	0.028975276
217	0xb9877a62	-0.0002584039
218	0xb8803f34	-6.115288e-05
219	0x3bd259b0	0.006419383
220	0x3c168d6a	0.009188989
221	0xbc01880c	-0.007905971
222	0xbc9b5dbd	-0.018965596
223	0xbc19f290	-0.00939621
224	0xbaa8d87d	-0.0012881901
225	0x3c930815	0.01794819
226	0x3c432802	0.011911394
227	0x3c14194b	0.009039233
228	0xbc4022fa	-0.011727089
229	0xbbba15ec	-0.005678883
230	0x3c2498ef	0.010046228
231	0x3cf375cf	0.029719261
232	0xbd364f9f	-0.044509526
233	0xbd98b802	-0.07456972
234	0xbd9c1ee4	-0.076230794
235	0xbc819039	-0.015815841
236	0xbc9c955c	-0.019114189
237	0xbbc8e875	-0.0061312267
238	0x3ba08b33	0.0048994063
239	0xba6eee87	-0.0009114523
240	0xbcd73ad6	-0.026273172
241	0xbc3d1a9a	-0.011541987
242	0xbcc0f64c	-0.023554944
243	0xbcce8667	-0.025210572
244	0xbacf1455	-0.0015798906
245	0x3cc15ab3	0.02360282
246	0x3cb63a67	0.022244645
247	0x3d4c0538	0.049809664
248	0x3d8ce2ed	0.0687922
249	0x3d4328c9	0.047646318
250	0x3d1fd189	0.039018188
251	0x3c639f94	0.013893027
252	0x3c5394be	0.012913881
253	0x3d24b14d	0.04020815
254	0x3d0b81cc	0.03405933
255	0x3cbac55b	0.022799185

encoder_ConvLSTM.conv_x.weight f4 [32, 8, 5, 5]
0	0xbd4c37a7	-0.04985776
1	0xbdacf80e	-0.0844575
2	0xbc82c3a2	-0.015962426
3	0xbd71cdf2	-0.059034295
4	0x3c2e4277	0.010635964
5	0xbc8161b0	-0.015793651
6	0xbc072300	-0.008248091
7	0xbd294815	-0.04132851
8	0xbc809daf	-0.01570019
9	0xbd61e1cb	-0.055146974
10	0x3d77575c	0.060386047
11	0x3d08dc4e	0.033413224
12	0xbc2ad30d	-0.010426295
13	0x3b81c27b	0.0039599515
14	0x3b62b9c9	0.00345956
15	0xbd9ba686	-0.07600121
16	0xbc6a4b72	-0.014300214
17	0xbc86bb11	-0.016446622
18	0xbd590fed	-0.052993704
19	0xbd39f9df	-0.04540431
20	0x3b38c268	0.0028192047
21	0xbb7455b8	-0.0037282538
22	0xbdde8446	-0.10865073
23	0xbd8eabf2	-0.0696639
24	0xbdfe6be5	-0.12422923
25	0x3d4ab729	0.04949108
26	0x3c674a1d	0.014116791
27	0x3d093afb	0.033503514
28	0x3d1d819c	0.038453683
29	0x3de84eb0	0.113431334
30	0x3daca4fd	0.084299065
31	0x3cdc6ca1	0.026907267
32	0xbcf44782	-0.029819254
33	0x3dc0ab64	0.0940769
34	0x3d8b82b2	0.068120375
35	0xbd27c2ea	-0.04095737
36	0x3c8c6b1a	0.017140914
37	0x3ca6b160	0.02034825
38	0x3de4c267	0.11169892
39	0x3d62ea21	0.055399064
40	0xbc82222b	-0.015885433
41	0xbb911a69	-0.004428197
42	0xbd199d46	-0.037503503
43	0x3d0776af	0.03307217
44	0xbc0c38f8	-0.008558504
45	0x3db9e34d	0.09076557
46	0xbc5c57b5	-0.013448645
47	0x3d937c9a	0.072015
48	0x3df110db	0.11770793
49	0x3d0c2613	0.034215998
50	0x3d92d38b	0.07169255
51	0x384ea677	4.926926e-05
52	0x3d7f13f2	0.06227488
53	0x3d8f0f98	0.06985396
54	0x3c90f587	0.017695202
55	0xbd2a1873	-0.041527223
56	0xbd2b77d8	-0.04186234
57	0x3ab21a98	0.0013588248
58	0xbd857922	-0.06517245
59	0xbbd9628d	-0.0066340626
60	0xbd8b18dc	-0.06791851
61	0xbcea0115	-0.02856497
62	0x3cd684c1	0.026186349
63	0xbda497b8	-0.080367506
64	0xbc9c2221	-0.019059243
65	0xbcd32538	-0.025774583
66	0xbd0667f7	-0.032813992
67	0x3d05fc28	0.032711178
68	0x3d593489	0.053028617
69	0x3d674d30	0.056470096
70	0xbd967e93	-0.07348361
71	0x3c35369d	0.011060384
72	0xbd844544	-0.06458524
73	0x3cf573c4	0.029962428
74	0x3d2ae8cb	0.041725915
75	0xbcb7c289	-0.022431629
76	0xbd95534c	-0.07291278
77	0x3d598d8a	0.053113498
78	0x38490e38	4.7935377e-05
79	0x3d01a668	0.031652838
80	0xbd804c55	-0.06264559
81	0xbcfa6d34	-0.03056965
82	0xbc329145	-0.010898893
83	0xbc4b8832	-0.012422608
84	0xbc6387f2	-0.013887392
85	0x3d31059d	0.043218244
86	0x3cbfea99	0.023427295
87	0x3c8025b7	0.015642984
88	0x3c734b8c	0.014849555
89	0x3b999e3e	0.0046880534
90	0xbc3002b7	-0.010742835
91	0x3d6f6a84	0.05845119
92	0x3d01ae75	0.031660516
93	0xbd593894	-0.053032473
94	0xbc43499c	-0.011919405
95	0xbcdf9321	-0.027291836
96	0xbd98f0c7	-0.074678
97	0xbd8ef745	-0.06980757
98	0xbdbf373e	-0.093367085
99	0xbd3431c4	-0.043992773
100	0xbd8c3bd3	-0.06847348
101	0xbcb23deb	-0.02175804
102	0xbd519019	-0.051162813
103	0xbcb43a7e	-0.022000547
104	0x3adfacc0	0.0017065033
105	0x3c8f31d4	0.017479815
106	0xbd91f98e	-0.07127677
107	0xbc8aef51	-0.016959818
108	0xbe0700f9	-0.13183965
109	0xbd1059a0	-0.035241723
110	0xbc2dec94	-0.010615487
111	0xbd6503a0	-0.05591166
112	0xbceb11a4	-0.028694935
113	0xbcd75725	-0.026286671
114	0xbcc13580	-0.023585081
115	0xbcf3ceec	-0.029761754
116	0xbdc7cb33	-0.09755554
117	0xbdd2e99d	-0.102984644
118	0xbd1f75d2	-0.03893072
119	0xbd897382	-0.067114845
120	0xbdd532d6	-0.10410087
121	0x3cb38c83	0.021917587
122	0xbc1156c4	-0.008870784
123	0x3d1b5e32	0.03793163
124	0x3d2c9f9f	0.042144414
125	0x3dc5ec8e	0.0966426
126	0x3da49211	0.080356725
127	0x3c2c4842	0.0105152745
128	0x3dabad4c	0.08382663
129	0x3de20236	0.11035578
130	0x3de24b0f	0.110494725
131	0x3d6b8cb3	0.057507228
132	0x3d912640	0.07087374
133	0x3dcf9b14	0.10137001
134	0x3ccb1aef	0.024793116
135	0x3e0f0662	0.13967279
136	0x3dce45e7	0.100719266
137	0x3c8b1d70	0.01698181
138	0x3e0c1a62	0.13681939
139	0x3c0f8ed9	0.008762085
140	0x3e02abf5	0.12760909
141	0xbb633589	-0.003466936
142	0x3dcc64ff	0.09980201
143	0xbc2c2399	-0.010506534
144	0xbbb75ab4	-0.0055955295
145	0x3dea9ea7	0.11456042
146	0x3de0d986	0.10978989
147	0x3dbb8ed1	0.091580994
148	0x3dda8cb5	0.10671369
149	0x3d8aacb3	0.06771221
150	0xbda4b2e0	-0.0804193
151	0xbd243ffb	-0.04010008
152	0xbddb8285	-0.10718254
153	0xbd43f072	-0.04783673
154	0xbd039f8e	-0.032134585
155	0xbdcd2e16	-0.10018556
156	0xbd83ba8e	-0.06432067
157	0xbcb2df16	-0.021834891
158	0xbc6e8fd9	-0.014560663
159	0xbd83f4db	-0.06443187
160	0xbda68325	-0.081304826
161	0xbde6a2b5	-0.11261503
162	0xbe008090	-0.12549043
163	0xbdf96133	-0.121767424
164	0xbdbef0d9	-0.09323282
165	0x3ca19fec	0.019729577
166	0xbd9fa540	-0.07795191
167	0xbde722b2	-0.112859145
168	0xbd86d376	-0.06583302
169	0xbd0c5991	-0.034265105
170	0xbc4a0193	-0.012329477
171	0xbdb791e8	-0.08963376
172	0xbdeb1917	-0.11479395
173	0xbdf44b74	-0.11928454
174	0xbdeb7695	-0.11497227
175	0x3c2f1abe	0.010687528
176	0x3de09b2c	0.10967097
177	0x3cab2461	0.02089137
178	0x3c719576	0.014745107
179	0x3d13e28a	0.036104716
180	0x3dc3e563	0.095652364
181	0x3db4019b	0.08789369
182	0x3d9995f7	0.07499307
183	0x3dc6ae12	0.0970117
184	0x3dc6b2f4	0.09702101
185	0x3d8f3456	0.06992404
186	0x3c86da63	0.016461557
187	0x3d86ebfb	0.065879785
188	0x3bbfcb61	0.005853102
189	0x3daf02ff	0.08545493
190	0x3c012398	0.007882021
191	0x3d9c8fc9	0.07644612
192	0x3d877e6c	0.0661591
193	0x3be46aea	0.006970753
194	0x3c9123e3	0.017717307
195	0xbc9b5ae7	-0.018964244
196	0x3d30a72c	0.043128178
197	0x3d030322	0.03198541
198	0x3d91596d	0.07097135
199	0x3e0f53de	0.13996837
200	0xbdce0558	-0.10059613
201	0x3a269f79	0.0006356161
202	0xbcd08cdc	-0.025457792
203	0x3d2fd5dc	0.04292856
204	0x3d18b232	0.037279315
205	0xbdbb360c	-0.09141168
206	0x3d48fa17	0.04906663
207	0xbd6a83b1	-0.057254497
208	0xbd0f340d	-0.03496175
209	0xbcc23a79	-0.023709523
210	0xbc51d988	-0.012808211
211	0x3ccc04b2	0.024904583
212	0x3d0e690e	0.034768157
213	0x3d94d1bd	0.07266567
214	0x3c4ec050	0.012619093
215	0xbdb204fa	-0.086923555
216	0x3d68ee08	0.05686763
217	0x3cb83454	0.02248589
218	0x3d655139	0.055985663
219	0x3d2ab454	0.04167588
220	0xbc8b5b84	-0.017011411
221	0xbc2c88d8	-0.010530673
222	0x3cf3a368	0.029741004
223	0xbcd9edbb	-0.026602617
224	0x3d29e3cb	0.041477006
225	0x3dbc4e99	0.09194679
226	0xbd374f53	-0.044753384
227	0xbd311d89	-0.043241058
228	0xbd0d1d26	-0.034451626
229	0xbd8719b1	-0.06596697
230	0x3d30bb94	0.04314764
231	0x3d126e8e	0.035749964
232	0x3d251f21	0.04031289
233	0xbd8bc50c	-0.06824693
234	0xbd9f03cd	-0.07764397
235	0x3dcc7e9c	0.09985086
236	0xbbe11457	-0.00686888
237	0xbdd6f272	-0.104954615
238	0xbd7618f5	-0.060082395
239	0xbd2d67ae	-0.042335205
240	0xbb729ae2	-0.0037018587
241	0xbd57feee	-0.052733354
242	0x3ce57f18	0.028014705
243	0xbceb04b3	-0.028688764
244	0x3d390bd4	0.045177296
245	0x3b34e5e4	0.0027602846
246	0x3dd116ab	0.10209402
247	0xba16f10b	-0.0005757964
248	0x3cb92103	0.022598749
249	0x3d933def	0.07189547
250	0x3ca46752	0.020068798
251	0x3d904981	0.0704527
252	0x3cfa66d8	0.030566618
253	0xbb0e49a5	-0.0021711376
254	0x3d657075	0.05601545
255	0x3e10ab72	0.14127901

encoder_ConvLSTM.conv_x.bias f4 [32]
0	0x3e31825b	0.17334883
1	0x3d7504ad	0.059818912
2	0x3d88e9c0	0.06685209
3	0x3d82da7f	0.06389331
4	0x3ca3d488	0.019998804
5	0xbce77b57	-0.028257055
6	0x3dd3aa15	0.10335175
7	0xbc0186b7	-0.007905654
8	0xbbbae197	-0.005703162
9	0x3d4080db	0.046997886
10	0x3d4d636d	0.050143648
11	0xbc21b845	-0.009870593
12	0xbb9c604f	-0.004772223
13	0x3d9e4748	0.077284396
14	0x37268786	9.925925e-06
15	0x3ce95d1d	0.028486783
16	0x3d0f29ba	0.034951903
17	0xbd299033	-0.041397285
18	0x3c81888a	0.015812177
19	0xbd60e751	-0.0549081
20	0x3cd5828c	0.026063226
21	0x3cb81254	0.022469677
22	0x3d7180b0	0.058960617
23	0x3d4c48fc	0.04987429
24	0x3dd85ff3	0.10565176
25	0xbc3d1f46	-0.011543101
26	0xbc99dd63	-0.018782323
27	0x3db2166c	0.08695683
28	0x3d5baee5	0.05363359
29	0x3d3a1f09	0.045439754
30	0x3dab66ce	0.08369218
31	0xbcc9634f	-0.024583487

encoder_ConvLSTM.conv_h.weight f4 [32, 8, 5, 5]
0	0x3bf52522	0.007481233
1	0x3d7b17ee	0.061302118
2	0xbd92e184	-0.0717192
3	0x3d83b239	0.06430478
4	0xbc5863b7	-0.013207368
5	0x3d3b7fe9	0.04577628
6	0xb7c0cc74	-2.298339e-05
7	0x3d038bbb	0.03211568
8	0xbd9b39e5	-0.07579402
9	0x3d67c172	0.05658097
10	0x3d74c1dd	0.059755195
11	0xbd898293	-0.06714358
12	0xbc8c8d29	-0.017157154
13	0xbd58b5e1	-0.05290783
14	0xbc3f60d8	-0.011680804
15	0xbcc0014b	-0.023438117
16	0xbcf50050	-0.029907376
17	0xbd23fd67	-0.040036585
18	0x3d293554	0.041310623
19	0x3d5b946a	0.053608336
20	0xbcb97198	-0.022637174
21	0x3b8f77f5	0.0043783137
22	0x3cf2a28a	0.02961852
23	0x3bcc4d05	0.0062347674
24	0x3c000dcf	0.007815792
25	0x3bfbca0f	0.0076839994
26	0xbb8add1c	-0.004237784
27	0xbb8bb5be	-0.0042636087
28	0x3d9014fa	0.07035251
29	0x3d4708a2	0.048592217
30	0x3d87990a	0.06620987
31	0x3d8cb655	0.068707146
32	0x3da55667	0.080731206
33	0xbd3f8a83	-0.046762954
34	0x3c076a41	0.008265079
35	0x3dc3d7c4	0.095626384
36	0x3d5acca9	0.053417835
37	0xbd2baa2a	-0.041910328
38	0x3d2c6055	0.042084057
39	0xbd541b2b	-0.051783722
40	0x3d0a5545	0.033772726
41	0x3dbaa27e	0.09113024
42	0x3c7de85f	0.015497296
43	0x3d4ef404	0.05052568
44	0xbd1b75da	-0.03795419
45	0x3d7167e0	0.058936954
46	0x3a13df1e	0.0005640852
47	0xbc5f838b	-0.013642202
48	0x3d94b50a	0.07261093
49	0x3d822d3e	0.063562855
50	0xbd328b3e	-0.043589823
51	0x3d44c376	0.04803797
52	0x3d32fe57	0.04369959
53	0x3c8d675c	0.0172612
54	0x3ca1d3ee	0.019754376
55	0x3d80306f	0.06259238
56	0x3d696700	0.056982994
57	0x3d9c6584	0.0763655
58	0x3d893c3e	0.067009434
59	0x3d8c5bcd	0.06853447
60	0x3c5b3da5	0.013381396
61	0x3c7b78f1	0.015348659
62	0x3de33d31	0.11095656
63	0x3dd4e79b	0.10395738
64	0x3dcfbc60	0.101433516
65	0x3c37d45e	0.011220066
66	0x3daa88f4	0.08326903
67	0x3c64bb47	0.013960666
68	0x3d4f8dea	0.05067245
69	0x3d55aa76	0.052164517
70	0x3d66b510	0.05632502
71	0x3dc9fb5f	0.09862398
72	0x3da28fc2	0.07937576
73	0xbc07e245	-0.008293693
74	0x3bce5dd2	0.0062978053
75	0x3c330e7f	0.010928749
76	0x3d1d833b	0.03845523
77	0x3d53e6ad	0.05173366
78	0xbcd331a6	-0.02578051
79	0x3d91c2ae	0.0711721
80	0xbd2cdc7e	-0.042202465
81	0x3d282bdd	0.041057456
82	0x3d473bd2	0.048641033
83	0x3d5342da	0.051577426
84	0xbd501353	-0.05079968
85	0xbb9a2352	-0.0047039175
86	0x3d7efb87	0.062251594
87	0x3a992e86	0.0011686839
88	0xbcc4849e	-0.023989018
89	0xbd76dc87	-0.060268905
90	0xbc534d4a	-0.012896845
91	0xbd557d5e	-0.052121513
92	0xbcbc680d	-0.022998834
93	0x3d6a3265	0.057176966
94	0xbd21bef0	-0.039488733
95	0x3d8ab68b	0.067730986
96	0x3d642bba	0.055705763
97	0xbcbc649b	-0.022997191
98	0x3d0f90cc	0.0350502
99	0x3d444d67	0.04792538
100	0x3d59ce1e	0.053175084
101	0x3dc70795	0.09718243
102	0x3ce1447e	0.02749848
103	0xbd3a396d	-0.04546492
104	0xbbacd97a	-0.0052749487
105	0x3d2729ec	0.040811464
106	0x3debc956	0.11513011
107	0x3cdaa042	0.026687745
108	0x3d7c1dbc	0.061551794
109	0xbbb0fe24	-0.0054013897
110	0x3b619f58	0.0034427252
111	0x3d2ab236	0.04167386
112	0x3c97d086	0.018532049
113	0x3d1313a8	0.035907418
114	0xbc5802d7	-0.013184271
115	0x3dcd8ad5	0.10036246
116	0x3d937fae	0.07202087
117	0xbcdf6d42	-0.027273778
118	0x3dc8cbff	0.09804534
119	0xbd0165fb	-0.031591397
120	0x3da52f72	0.0806569
121	0x3b968963	0.0045940145
122	0xbc94e8dd	-0.018177444
123	0xbcc7e7e9	-0.024402576
124	0x3d62ee7a	0.05540321
125	0x3d45e924	0.048318043
126	0x3d108222	0.035280354
127	0xbc7924e2	-0.015206547
128	0xbc960e62	-0.018317405
129	0x3de912e6	0.11380558
130	0x3c47acc5	0.012187188
131	0x3deb93da	0.1150281
132	0x3dd6c281	0.104863174
133	0x3c63477c	0.013872024
134	0x3c8ee6b8	0.017444
135	0x3c75a9d4	0.014994103
136	0x3db7a980	0.089678764
137	0x3d160672	0.03662724
138	0x3c239e21	0.009986431
139	0x3dced5b8	0.10099357
140	0x3c85fa8c	0.016354822
141	0x3d6a2c29	0.05717102
142	0x3c3a2a37	0.011362604
143	0x3cd89e68	0.026442721
144	0x3ca37f72	0.019958232
145	0x3d4a028c	0.049318835
146	0x3c4e6ab5	0.012598683
147	0x3d9b72a2	0.07590224
148	0x3cc56858	0.024097607
149	0x3cc35a42	0.02384675
150	0x3dac8984	0.084246665
151	0x3d86319f	0.06552433
152	0x3c35379b	0.011060621
153	0x3d9094ce	0.07059632
154	0x3dd4c90f	0.103899114
155	0x3d2fcbf9	0.042919133
156	0x3d8af8c5	0.0678573
157	0xbc1594ae	-0.009129686
158	0x3d4a7e8d	0.049437094
159	0x3dbc0d9f	0.091822855
160	0x3c771ebf	0.015083014
161	0x3c81a99d	0.015827948
162	0x3dc26bfc	0.09493253
163	0x3da351f7	0.07974618
164	0x3de2d9c2	0.1107669
165	0x3d54d6b3	0.051962566
166	0x3dd4323c	0.10361144
167	0x3d3f4c55	0.046703655
168	0x3da19ee6	0.078916356
169	0x3d19b7cf	0.03752881
170	0x3b87b9e1	0.0041420315
171	0x3d299d15	0.04140957
172	0x3d8b116c	0.06790432
173	0x3d32e336	0.043673716
174	0x3d6e2bc4	0.058147207
175	0xbd43e9f8	-0.047830552
176	0xbd66da16	-0.056360327
177	0x3d7857b9	0.060630534
178	0xbc8424fc	-0.016130917
179	0x3c251c61	0.010077567
180	0xbd5f1095	-0.054459173
181	0xbbff2c3e	-0.0077872565
182	0xbda43443	-0.08017781
183	0x3d4821e1	0.048860434
184	0x3caad685	0.020854244
185	0xbd49ad6d	-0.049237657
186	0x3c876e1f	0.016532002
187	0xbd2cb97e	-0.042169087
188	0xbdb73f8b	-0.08947667
189	0xbd925a72	-0.07146157
190	0x3d4a9d87	0.049466636
191	0xbd8c38ee	-0.06846796
192	0xbdb4fd6c	-0.08837399
193	0x3d2414d7	0.040058937
194	0xbd672b13	-0.056437563
195	0x3daea89e	0.08528255
196	0xbbee3faf	-0.0072707753
197	0xbd2ba532	-0.04190559
198	0xbd442e28	-0.04789558
199	0xbc889f75	-0.016677598
200	0x3d1d879b	0.0384594
201	0xbd24bca6	-0.04021897
202	0x3d350ff5	0.04420467
203	0xbd98cdc7	-0.07461124
204	0xbd8a9095	-0.06765858
205	0xbd55f933	-0.052239608
206	0xbd2891a2	-0.04115451
207	0xbb8befcc	-0.0042705294
208	0x3d573c91	0.052547995
209	0x3b43c245	0.0029870432
210	0xbd4ee402	-0.050510414
211	0xbda0c274	-0.07849589
212	0xbd178e96	-0.037001215
213	0xba52db15	-0.000804351
214	0x3d9878a8	0.07444888
215	0x3c6a9fb4	0.014320303
216	0xbca0e5be	-0.0196408
217	0xbd506b2a	-0.05088345
218	0x3ca4ff0c	0.020141147
219	0x3a456cf6	0.000753119
220	0xbd08f898	-0.033440202
221	0xbd1f7680	-0.03893137
222	0xbc816c32	-0.015798662
223	0x3cef9ea6	0.029250454
224	0x3d8c6ed8	0.06857079
225	0xbdae0e96	-0.08498876
226	0x3d0b72c0	0.03404498
227	0xbd2f610e	-0.042817168
228	0xbd8301c5	-0.06396822
229	0x3b1f3513	0.002429311
230	0x3ba15322	0.0049232403
231	0xbda375b4	-0.079814345
232	0x3c09c0bd	0.008407769
233	0xbd71763a	-0.05895064
234	0x3d670e2c	0.05641
235	0xbcaea808	-0.021320358
236	0xbda0d9f6	-0.07854073
237	0xbd88bc48	-0.06676537
238	0xbd76b1ef	-0.060228284
239	0xbd07502c	-0.033035442
240	0xbbe300c7	-0.006927583
241	0xbd94bbb5	-0.07262365
242	0xbd3b9b55	-0.045802433
243	0xbda1f2fb	-0.07907673
244	0xbd32ccb5	-0.043652255
245	0xbd8d6b15	-0.0690519
246	0xbd96d5c2	-0.0736499
247	0x3d2f8daf	0.04285973
248	0x3d32fdb6	0.04369899
249	0xbd075003	-0.03303529
250	0xbba6a787	-0.005085889
251	0x3dac1b42	0.084036365
252	0x3da5f0b2	0.081025496
253	0x3dd76bc0	0.105185986
254	0x3d9491e4	0.07254389
255	0x3c9da9de	0.019246038
